D:\Anaconda3\python.exe D:\WorkFiles\pythoncode\lfdProj\test.py 
DNNMLPDropouthead1(
  (fc1): Linear(in_features=10, out_features=128, bias=True)
  (relu): ReLU()
  (sigmoid): Sigmoid()
  (input_embedding): context_embedding(
    (causal_convolution0): CausalConv1d(1, 32, kernel_size=(3,), stride=(1,), padding=(1,))
  )
  (decode_layer): TransformerEncoderLayer(
    (self_attn): MultiheadAttention(
      (out_proj): NonDynamicallyQuantizableLinear(in_features=128, out_features=128, bias=True)
    )
    (linear1): Linear(in_features=128, out_features=2048, bias=True)
    (dropout): Dropout(p=0.1, inplace=False)
    (linear2): Linear(in_features=2048, out_features=128, bias=True)
    (norm1): LayerNorm((128,), eps=1e-05, elementwise_affine=True)
    (norm2): LayerNorm((128,), eps=1e-05, elementwise_affine=True)
    (dropout1): Dropout(p=0.1, inplace=False)
    (dropout2): Dropout(p=0.1, inplace=False)
  )
  (transformer_decoder): TransformerEncoder(
    (layers): ModuleList(
      (0): TransformerEncoderLayer(
        (self_attn): MultiheadAttention(
          (out_proj): NonDynamicallyQuantizableLinear(in_features=128, out_features=128, bias=True)
        )
        (linear1): Linear(in_features=128, out_features=2048, bias=True)
        (dropout): Dropout(p=0.1, inplace=False)
        (linear2): Linear(in_features=2048, out_features=128, bias=True)
        (norm1): LayerNorm((128,), eps=1e-05, elementwise_affine=True)
        (norm2): LayerNorm((128,), eps=1e-05, elementwise_affine=True)
        (dropout1): Dropout(p=0.1, inplace=False)
        (dropout2): Dropout(p=0.1, inplace=False)
      )
      (1): TransformerEncoderLayer(
        (self_attn): MultiheadAttention(
          (out_proj): NonDynamicallyQuantizableLinear(in_features=128, out_features=128, bias=True)
        )
        (linear1): Linear(in_features=128, out_features=2048, bias=True)
        (dropout): Dropout(p=0.1, inplace=False)
        (linear2): Linear(in_features=2048, out_features=128, bias=True)
        (norm1): LayerNorm((128,), eps=1e-05, elementwise_affine=True)
        (norm2): LayerNorm((128,), eps=1e-05, elementwise_affine=True)
        (dropout1): Dropout(p=0.1, inplace=False)
        (dropout2): Dropout(p=0.1, inplace=False)
      )
    )
  )
  (fc2): Linear(in_features=128, out_features=256, bias=True)
  (fc3): Linear(in_features=256, out_features=256, bias=True)
  (fc4): Linear(in_features=256, out_features=128, bias=True)
  (dropout): Dropout(p=0.5, inplace=False)
  (fc5_0): Linear(in_features=128, out_features=1, bias=True)
  (fc5_1): Linear(in_features=128, out_features=1, bias=True)
  (fc5_2): Linear(in_features=128, out_features=1, bias=True)
  (fc_att_1): Linear(in_features=128, out_features=256, bias=True)
  (fc_att_2): Linear(in_features=256, out_features=128, bias=True)
  (fc_att_3_label_0): Linear(in_features=128, out_features=128, bias=True)
  (fc_att_3_label_1): Linear(in_features=128, out_features=128, bias=True)
  (fc_att_3_label_2): Linear(in_features=128, out_features=128, bias=True)
)
=> loading checkpoint './model/DNN1best_checkpoint.pth.tar'
=> loaded checkpoint './model/DNN1best_checkpoint.pth.tar' (epoch 585)
[… Test set: Average loss: 1.8303711888438082e-05


Process finished with exit code 0
